…
"className\":\"gatsby-highlight\",\"data-language\":\"text\"},mdx(\"pre\",{parentName:\"div\",\"className\":\"language-text\"},mdx(\"code\",{parentName:\"pre\",\"className\":\"language-text\"},\"(None, 10)\\nModel: \\\"model\\\"\\n_________________________________________________________________\\n Layer (type)                Output Shape              Param #   \\n=================================================================\\n input_1 (InputLayer)        [(None, 32, 32, 3)]       0         \\n                                                                 \\n conv2d (Conv2D)             (None, 32, 32, 32)        896       \\n                                                                 \\n batch_normalization (Batch  (None, 32, 32, 32)        128       \\n Normalization)                                                  \\n                                                                 \\n conv2d_1 (Conv2D)           (None, 32, 32, 32)        9248      \\n                                                                 \\n batch_normalization_1 (Bat  (None, 32, 32, 32)        128       \\n chNormalization)                                                \\n                                                                 \\n max_pooling2d (MaxPooling2  (None, 16, 16, 32)        0         \\n D)                                                              \\n                                                                 \\n conv2d_2 (Conv2D)           (None, 16, 16, 64)        18496     \\n                                                                 \\n batch_normalization_2 (Bat  (None, 16, 16, 64)        256       \\n chNormalization)                                                \\n                                                                 \\n conv2d_3 (Conv2D)           (None, 16, 16, 64)        36928     \\n                                                                 \\n batch_normalization_3 (Bat  (None, 16, 16, 64)        256       \\n chNormalization)                                                \\n                                                                 \\n max_pooling2d_1 (MaxPoolin  (None, 8, 8, 64)          0         \\n g2D)                                                            \\n                                                                 \\n conv2d_4 (Conv2D)           (None, 8, 8, 128)         73856     \\n                                                                 \\n batch_normalization_4 (Bat  (None, 8, 8, 128)         512       \\n chNormalization)                                                \\n                                                                 \\n conv2d_5 (Conv2D)           (None, 8, 8, 128)         147584    \\n                                                                 \\n batch_normalization_5 (Bat  (None, 8, 8, 128)         512       \\n chNormalization)                                                \\n                                                                 \\n max_pooling2d_2 (MaxPoolin  (None, 4, 4, 128)         0         \\n g2D)                                                            \\n                                                                 \\n flatten (Flatten)           (None, 2048)              0         \\n                                                                 \\n dropout (Dropout)           (None, 2048)              0         \\n                                                                 \\n dense (Dense)               (None, 1024)              2098176   \\n                                                                 \\n dropout_1 (Dropout)         (None, 1024)              0         \\n                                                                 \\n dense_1 (Dense)             (None, 10)                10250     \\n                                                                 \\n=================================================================\\nTotal params: 2397226 (9.14 MB)\\nTrainable params: 2396330 (9.14 MB)\\nNon-trainable params: 896 (3.50 KB)\\n_________________________________________________________________\\nEpoch 1/100\\n1500/1500 [==============================] - 276s 182ms/step - l
…
